mnist_model_split.npz (npz, 815126 bytes, 4 tensors)

W1 f8 [128, 784]
00000000: 0000 0080 55a4 9a3f 0000 00c0 8343 843f
00000010: 0000 0000 3da3 773f 0000 0000 5127 863f
00000020: 0000 0000 920b a63f 0000 0000 5f95 af3f
00000030: 0000 0060 7d04 933f 0000 0040 1996 aa3f
00000040: 0000 0040 e939 a63f 0000 0080 3397 9d3f
00000050: 0000 00a0 5d06 973f 0000 0000 acce 8e3f
00000060: 0000 0020 c805 b33f 0000 0000 1bd6 ac3f
00000070: 0000 0080 99fb 883f 0000 0000 89f9 a43f
00000080: 0000 0000 1722 af3f 0000 0020 b622 b03f
00000090: 0000 0020 dfbd a43f 0000 0040 4559 973f
000000a0: 0000 0060 17b2 a03f 0000 0000 7a88 8c3f
000000b0: 0000 0040 d223 70bf 0000 00e0 e09c 353f
000000c0: 0000 00e0 cbc1 883f 0000 0060 50f9 843f
000000d0: 0000 0020 f76c aa3f 0000 0080 bb01 963f
000000e0: 0000 0040 a79e a83f 0000 00e0 325c 863f
000000f0: 0000 0040 c109 8d3f 0000 00a0 2c68 31bf
00000100: 0000 00c0 1178 923f 0000 00e0 09d5 a43f
00000110: 0000 0080 a5ef 833f 0000 00a0 7203 b33f
00000120: 0000 0000 455a b33f 0000 0060 27ac af3f
00000130: 0000 00e0 b3d7 803f 0000 00a0 7904 b03f
00000140: 0000 00e0 07ba 7d3f 0000 0020 0f57 59bf
00000150: 0000 0000 60fe 6e3f 0000 0000 e8c2 993f
00000160: 0000 00e0 568b 613f 0000 00c0 bc92 a93f
00000170: 0000 00a0 5b0d a33f 0000 00c0 68ff a73f
00000180: 0000 0040 4270 823f 0000 0020 962e a63f
00000190: 0000 0060 84f6 62bf 0000 00e0 66db 573f
000001a0: 0000 0000 9fb8 a13f 0000 00a0 7bbd 823f
000001b0: 0000 00c0 3d69 9f3f 0000 0020 764e ac3f
000001c0: 0000 0000 55b2 9d3f 0000 00e0 291b 9d3f
000001d0: 0000 00a0 4e1e 943f 0000 0040 cfe0 75bf
000001e0: 0000 00e0 a213 313f 0000 0020 651b a43f
000001f0: 0000 00a0 4f81 8e3f 0000 00c0 92e3 923f
00000200: 0000 0000 cc19 9a3f 0000 0020 b9c0 52bf
00000210: 0000 0000 5264 8c3f 0000 0080 0594 a0bf
00000220: 0000 0000 8a97 a0bf 0000 00e0 16c4 94bf
00000230: 0000 0040 d044 2fbf 0000 0040 f261 343f
00000240: 0000 0020 d661 38bf 0000 0060 d416 993f
00000250: 0000 0080 e860 893f 0000 0020 eafd 8d3f
00000260: 0000 00c0 226c a13f 0000 00c0 1366 943f
00000270: 0000 00a0 4825 96bf 0000 00e0 48f7 993f
00000280: 0000 0060 8586 a03f 0000 0040 e3f6 9b3f
00000290: 0000 0080 3cd4 a73f 0000 00c0 4bd7 a23f
000002a0: 0000 0080 396a ab3f 0000 00c0 fcb1 8c3f
000002b0: 0000 0020 4442 913f 0000 0040 9aff a63f
000002c0: 0000 0020 3203 a43f 0000 0060 13f4 8e3f
000002d0: 0000 00a0 e846 aa3f 0000 0060 292b 8b3f
000002e0: 0000 00a0 e8de 72bf 0000 0000 662f a5bf
000002f0: 0000 0080 1276 aebf 0000 00a0 d470 acbf
00000300: 0000 0080 32fa b3bf 0000 0040 ac20 b0bf
00000310: 0000 0080 b973 afbf 0000 00a0 df55 7ebf
00000320: 0000 0080 ffe7 94bf 0000 0020 5d36 76bf
00000330: 0000 0040 23df a6bf 0000 0020 80ba 73bf
00000340: 0000 0060 313b 7abf 0000 0040 55d2 82bf
00000350: 0000 0000 74ef 80bf 0000 00e0 44a9 a3bf
00000360: 0000 0020 6039 913f 0000 0080 466b 8b3f
00000370: 0000 00a0 e0b4 a83f 0000 0000 6a0b a13f
00000380: 0000 0000 8ed6 833f 0000 0000 ed0b a23f
00000390: 0000 0020 3b8b 9e3f 0000 00a0 7d6f a43f
000003a0: 0000 0020 17f8 a33f 0000 0020 2225 953f
000003b0: 0000 0080 135c a33f 0000 0020 d04b 9fbf
000003c0: 0000 00a0 d06c 6b3f 0000 0000 30df a1bf
000003d0: 0000 0020 53d9 b0bf 0000 0060 27de a5bf
000003e0: 0000 00e0 6e6e b3bf 0000 00a0 9fe1 a1bf
000003f0: 0000 0000 4032 b3bf 0000 00e0 e0e9 a7bf
00000400: 0000 00c0 ab9f 9fbf 0000 00e0 01b4 a3bf
00000410: 0000 0040 b74b aabf 0000 0040 65fe aabf
00000420: 0000 00a0 1d88 b0bf 0000 0000 90ab 9dbf
00000430: 0000 0020 dd7c aebf 0000 0040 7d1e a9bf
00000440: 0000 0040 2ffb 7abf 0000 0060 1031 1bbf
00000450: 0000 0000 c5d0 963f 0000 0040 e908 88bf
00000460: 0000 00e0 a08c a83f 0000 0040 5ad5 643f
00000470: 0000 00a0 0c6b 9c3f 0000 0080 3308 993f
00000480: 0000 0060 4960 8c3f 0000 00c0 f448 a33f
00000490: 0000 0000 8b9c 9bbf 0000 00a0 173f 9cbf
000004a0: 0000 0040 891d b2bf 0000 00a0 e9b0 b5bf
000004b0: 0000 00a0 9cac b2bf 0000 00a0 698d b3bf
000004c0: 0000 0000 e8f5 acbf 0000 0080 ec6d 9bbf
000004d0: 0000 0000 44b6 b2bf 0000 0080 faed a9bf
000004e0: 0000 0000 a453 aabf 0000 0000 3b88 aebf
000004f0: 0000 0080 4741 aabf 0000 0040 e895 bbbf
00000500: 0000 0040 2434 babf 0000 0060 ba2c b0bf
00000510: 0000 0060 fbf3 abbf 0000 0060 fab6 9bbf
00000520: 0000 0040 d9ca 96bf 0000 0040 8b0d 9a3f
00000530: 0000 00c0 0f01 9ebf 0000 0040 f3a8 853f
00000540: 0000 00a0 2165 ad3f 0000 0060 9392 a13f
00000550: 0000 0040 ab65 a33f 0000 00a0 e59d ab3f
00000560: 0000 0060 1057 a93f 0000 0020 1bbf 913f
00000570: 0000 00a0 8f8e 963f 0000 0060 4cdc 9abf
00000580: 0000 0080 c315 9dbf 0000 00c0 8f5f 8bbf
00000590: 0000 0020 a8a2 b3bf 0000 0020 be19 b4bf
000005a0: 0000 0040 3c7a b3bf 0000 0060 286b 9ebf
000005b0: 0000 0020 35e0 a7bf 0000 00c0 81cb b2bf
000005c0: 0000 00e0 93e3 a5bf 0000 0020 723f b1bf
000005d0: 0000 0020 3e4a bebf 0000 0020 fbe0 b9bf
000005e0: 0000 0000 899b bebf 0000 0020 b2ae b3bf
000005f0: 0000 0080 a77a bbbf 0000 00e0 0cb0 9fbf
00000600: 0000 00c0 519b a2bf 0000 0000 9b91 a4bf
00000610: 0000 0040 5040 853f 0000 0020 6213 573f
00000620: 0000 00c0 fa1f a73f 0000 0040 9276 a23f
00000630: 0000 0040 a528 b23f 0000 0040 fe5a b03f
00000640: 0000 0060 673b a93f 0000 0040 b124 b23f
00000650: 0000 0020 ef88 aa3f 0000 00e0 6fdb 85bf
00000660: 0000 0020 e29b 973f 0000 00c0 9529 67bf
00000670: 0000 0040 068f 98bf 0000 0060 c560 a4bf
00000680: 0000 00e0 4347 94bf 0000 00a0 1598 aebf
00000690: 0000 00c0 f29c aabf 0000 0020 d5b4 b9bf
000006a0: 0000 00c0 7a3e b6bf 0000 0040 de20 bdbf
000006b0: 0000 0040 aa56 bdbf 0000 00e0 3756 b8bf
000006c0: 0000 0000 ca63 b8bf 0000 0060 8c19 babf
000006d0: 0000 0060 c9e2 b5bf 0000 00e0 3c3b b2bf
000006e0: 0000 0040 5440 a5bf 0000 00c0 a2cd a5bf
000006f0: 0000 0020 fe1a 9a3f 0000 0080 81b9 753f
00000700: 0000 00c0 f270 a13f 0000 0060 5f23 753f
00000710: 0000 0060 c9e7 a43f 0000 0040 a487 b03f
00000720: 0000 00c0 ae18 963f 0000 0000 cdc0 b03f
00000730: 0000 00a0 80b2 923f 0000 00c0 edc9 af3f
00000740: 0000 0000 87a6 933f 0000 0000 6266 913f
00000750: 0000 00c0 6289 9dbf 0000 0060 5f67 9fbf
00000760: 0000 00c0 9e08 983f 0000 00a0 2968 95bf
00000770: 0000 00e0 ce3c a1bf 0000 00e0 04f0 a3bf
00000780: 0000 0020 837d b7bf 0000 00a0 a9e2 bebf
00000790: 0000 0000 b2a2 b7bf 0000 0020 6e68 b5bf
000007a0: 0000 00e0 8490 b8bf 0000 00e0 458b b1bf
000007b0: 0000 00c0 86ab aebf 0000 00e0 59cd 99bf
000007c0: 0000 0020 4c8b a6bf 0000 00e0 575e 9abf
000007d0: 0000 0020 cfa4 a4bf 0000 00e0 126e 9fbf
000007e0: 0000 0020 13a9 63bf 0000 00c0 5cac 723f
000007f0: 0000 0080 4b74 b03f 0000 00c0 acae 953f
0.026017509400844574 0.009894398972392082 0.005770910531282425 0.010817177593708038 0.043057024478912354 0.06168648600578308 0.01857181452214718 0.05192641168832779
0.04341057687997818 0.028897099196910858 0.022485220804810524 0.015042632818222046 0.07430697232484818 0.05632099509239197 0.012198638170957565 0.040966302156448364
0.06080695986747742 0.06302965432405472 0.040511105209589005 0.0228014774620533 0.03260872885584831 0.013932183384895325 -0.00394041184335947 0.0003297852526884526
0.01208838727325201 0.01024115364998579 0.05161258950829506 0.02149098366498947 0.04808542877435684 0.010918042622506618 0.014178762212395668 -0.0002656086871866137
0.01803615316748619 0.04068785533308983 0.009734433144330978 0.07427135854959488 0.0755961537361145 0.061860304325819016 0.00822392012923956 0.0625682845711708
0.007257490884512663 -0.001546635408885777 0.00378340482711792 0.025157570838928223 0.002141637494787574 0.04994764178991318 0.03721128776669502 0.04687049239873886
0.009003179147839546 0.04332417622208595 -0.002314814133569598 0.0014561180723831058 0.034611672163009644 0.009150472469627857 0.030674900859594345 0.055286113172769547
0.029000595211982727 0.028423933312296867 0.019646862521767616 -0.005341348238289356 0.00026056982460431755 0.039271507412195206 0.014895078726112843 0.018446248024702072
0.02548903226852417 -0.0011445815907791257 0.013863220810890198 -0.03237931430339813 -0.03240615129470825 -0.02027927152812481 -0.00023856203188188374 0.00031101383501663804
-0.0003720424429047853 0.024501150473952293 0.012391868978738785 0.014644459821283817 0.03402813524007797 0.01992064341902733 -0.021626600995659828 0.025357378646731377
0.03227631375193596 0.027308989316225052 0.046541109681129456 0.03679882735013962 0.05354480445384979 0.014011358842253685 0.01685434766113758 0.04491884261369705
0.03908688202500343 0.015113974921405315 0.05132224038243294 0.013265918008983135 -0.004607113543897867 -0.041377246379852295 -0.05949456989765167 -0.055548328906297684
-0.07803645730018616 -0.06299854815006256 -0.06142978370189667 -0.007406114134937525 -0.020416252315044403 -0.005422939080744982 -0.044671155512332916 -0.004816532600671053
-0.006404106970876455 -0.009190240874886513 -0.00826922059059143 -0.0384007953107357 0.016820432618260384 0.01338820531964302 0.048254985362291336 0.033290207386016846
0.009686574339866638 0.035247236490249634 0.02982799895107746 0.039913106709718704 0.039002154022455215 0.020649464800953865 0.03781186044216156 -0.030562641099095345
0.003347785444930196 -0.03490591049194336 -0.06581611186265945 -0.042710524052381516 -0.07590382546186447 -0.034924495965242386 -0.07498550415039062 -0.04670622572302818
-0.03088253363966942 -0.03848272189497948 -0.051358915865421295 -0.052722133696079254 -0.06457696110010147 -0.02897477149963379 -0.05954638496041298 -0.04906073957681656
-0.006587204523384571 -0.00010372793622082099 0.022280767560005188 -0.011735746636986732 0.04794790968298912 0.0025431406684219837 0.027752110734581947 0.024445347487926483
0.0138555271551013 0.03766598552465439 -0.026964351534843445 -0.02758442796766758 -0.07076318562030792 -0.08473072201013565 -0.07294634729623795 -0.0763765349984169
-0.056563615798950195 -0.02678651362657547 -0.07309365272521973 -0.05064375698566437 -0.05141937732696533 -0.059633105993270874 -0.05127929151058197 -0.10775615274906158
-0.10235811769962311 -0.06318249553442001 -0.05459580942988396 -0.02706519328057766 -0.022258181124925613 0.02544229105114937 -0.029300924390554428 0.010576153174042702
0.057412195950746536 0.03432140871882439 0.03788504749536514 0.053939033299684525 0.04949237033724785 0.017330573871731758 0.022028202190995216 -0.02623099647462368
-0.028403334319591522 -0.013365862891077995 -0.07670069485902786 -0.07851780205965042 -0.07608391344547272 -0.029705649241805077 -0.046632442623376846 -0.0734177678823471
-0.04275190457701683 -0.06737435609102249 -0.11832035332918167 -0.10108918696641922 -0.11956077814102173 -0.07688439637422562 -0.10734030604362488 -0.03094501607120037
-0.036341242492198944 -0.04017338156700134 0.010376574471592903 0.0014084299327805638 0.045165859162807465 0.0360608771443367 0.07093270123004913 0.06388844549655914
0.04928134009242058 0.07087238132953644 0.05182597413659096 -0.010672449134290218 0.023055585101246834 -0.0028274464420974255 -0.023983094841241837 -0.03980080410838127
-0.019803104922175407 -0.059754062443971634 -0.05197867006063461 -0.10041553527116776 -0.08689086139202118 -0.11378277838230133 -0.11460365355014801 -0.09506558626890182
-0.09527266025543213 -0.10195233672857285 -0.08549173921346664 -0.0712163969874382 -0.04150641709566116 -0.04258450120687485 0.025493593886494637 0.005303865298628807
0.03406485170125961 0.0051606870256364346 0.04083089157938957 0.06456972658634186 0.021578531712293625 0.06544190645217896 0.01825905777513981 0.062087468802928925
0.01918993890285492 0.016992121934890747 -0.028844397515058517 -0.030667772516608238 0.023470383137464523 -0.020905161276459694 -0.033667054027318954 -0.03894057497382164
-0.09175891429185867 -0.12064609676599503 -0.09232628345489502 -0.08362472802400589 -0.09595518559217453 -0.06853138655424118 -0.05990239232778549 -0.025197414681315422
-0.04403150454163551 -0.02575051598250866 -0.04031989350914955 -0.030693335458636284 -0.002399957040324807 0.004558908753097057 0.06427451968193054 0.021174143999814987

b1 f8 [128]
00000000: 0000 00a0 5d58 adbf 0000 00e0 11b8 a73f
00000010: 0000 0080 1590 a0bf 0000 00e0 7185 68bf
00000020: 0000 0020 9f91 9dbf 0000 0060 d183 893f
00000030: 0000 0080 3957 683f 0000 0020 d330 a03f
00000040: 0000 0040 8610 8abf 0000 00a0 2e2e 81bf
00000050: 0000 0060 304f a3bf 0000 0040 91ea 99bf
00000060: 0000 00a0 0f85 50bf 0000 00e0 59f6 80bf
00000070: 0000 0060 3d03 823f 0000 0060 acf0 a33f
00000080: 0000 00e0 eaa4 913f 0000 0080 eb27 883f
00000090: 0000 0020 850f a13f 0000 0060 b2c5 853f
000000a0: 0000 00e0 647d 8fbf 0000 0040 faae 983f
000000b0: 0000 00e0 c1b8 97bf 0000 00e0 f67c a1bf
000000c0: 0000 0000 43d0 7dbf 0000 0040 3838 933f
000000d0: 0000 0080 1279 78bf 0000 0020 2812 9b3f
000000e0: 0000 00a0 e76f a63f 0000 0040 c182 82bf
000000f0: 0000 0020 d35c a23f 0000 00e0 6b2f 85bf
00000100: 0000 0000 d9f2 75bf 0000 0020 e813 a43f
00000110: 0000 00a0 6893 8ebf 0000 00c0 8605 93bf
00000120: 0000 0020 4fc0 8d3f 0000 0000 aaba 93bf
00000130: 0000 0080 cba3 913f 0000 0060 0911 a4bf
00000140: 0000 00e0 636d 93bf 0000 0060 2b30 a2bf
00000150: 0000 0060 66e9 8fbf 0000 0020 65c6 7a3f
00000160: 0000 0000 de24 813f 0000 0060 dc04 973f
00000170: 0000 00c0 ac4f 993f 0000 00a0 06f8 933f
00000180: 0000 00a0 f771 80bf 0000 00e0 9d7b 98bf
00000190: 0000 0060 a9cf a2bf 0000 0040 a15d 91bf
000001a0: 0000 0000 0674 91bf 0000 0000 9136 6cbf
000001b0: 0000 0000 6ae6 98bf 0000 00e0 824a 8bbf
000001c0: 0000 00c0 6f15 743f 0000 00c0 c285 913f
000001d0: 0000 00e0 b794 9dbf 0000 00c0 95fe 5e3f
000001e0: 0000 00c0 4761 78bf 0000 0060 8aca a1bf
000001f0: 0000 00e0 22c6 953f 0000 0040 3b22 983f
00000200: 0000 0020 e481 8dbf 0000 00c0 9b5b 9a3f
00000210: 0000 0060 1e4e 99bf 0000 00e0 72ea 863f
00000220: 0000 0040 f195 77bf 0000 0080 ffa0 763f
00000230: 0000 0080 67ed 833f 0000 00c0 85c1 75bf
00000240: 0000 00e0 711d a1bf 0000 0020 a8e7 9c3f
00000250: 0000 0080 3c8e 9abf 0000 0020 a243 6ebf
00000260: 0000 0000 4abe 92bf 0000 0080 3d94 55bf
00000270: 0000 00c0 28e1 913f 0000 0000 6391 a9bf
00000280: 0000 0040 d7ed 9cbf 0000 0060 7b4c 94bf
00000290: 0000 00a0 7884 693f 0000 0080 1eac a4bf
000002a0: 0000 0080 129f 9a3f 0000 0020 a657 34bf
000002b0: 0000 0020 bbb5 82bf 0000 0080 b5b9 8bbf
000002c0: 0000 00c0 cb4a 90bf 0000 0080 fd58 7f3f
000002d0: 0000 0060 a296 89bf 0000 00e0 539c a23f
000002e0: 0000 00e0 357b 82bf 0000 00c0 c4cf 88bf
000002f0: 0000 00a0 fa7b 933f 0000 0020 918b 913f
00000300: 0000 00e0 a498 92bf 0000 00a0 4b16 70bf
00000310: 0000 0000 888d 643f 0000 0060 14e3 9bbf
00000320: 0000 0060 86fe 94bf 0000 0020 2b2b 7b3f
00000330: 0000 00c0 a6f8 80bf 0000 0040 0a38 97bf
00000340: 0000 0060 ba93 883f 0000 00e0 3213 9c3f
00000350: 0000 0000 c981 81bf 0000 0040 f363 893f
00000360: 0000 00c0 d4f1 9f3f 0000 00a0 46ae 833f
00000370: 0000 00e0 2706 9bbf 0000 0020 9046 893f
00000380: 0000 0040 8087 a7bf 0000 0040 ffc5 953f
00000390: 0000 00c0 1870 a7bf 0000 0000 12df 6abf
000003a0: 0000 0060 b1bf 8cbf 0000 0080 963d 903f
000003b0: 0000 0000 4319 88bf 0000 0080 65fc 6abf
000003c0: 0000 00c0 0d1a a3bf 0000 0000 9bba 6d3f
000003d0: 0000 00c0 f81e 8dbf 0000 00a0 dfb6 863f
000003e0: 0000 00a0 eb55 963f 0000 00a0 cedc 5e3f
000003f0: 0000 0040 44d2 7dbf 0000 00e0 3b1c 923f
-0.05731480196118355 0.04632621631026268 -0.032349273562431335 -0.0029933189507573843 -0.028875814750790596 0.012458453886210918 0.0029712794348597527 0.0316225029528141
-0.012726830318570137 -0.008388866670429707 -0.037713538855314255 -0.025308866053819656 -0.0010082867229357362 -0.008282377384603024 0.008795241825282574 0.03894556686282158
0.017230672761797905 0.011794891208410263 0.03332153335213661 0.010630982927978039 -0.015375888906419277 0.02410498633980751 -0.023165730759501457 -0.03415652737021446
-0.007278691977262497 0.018769148737192154 -0.005974838510155678 0.026436449959874153 0.0438225157558918 -0.00903845764696598 0.0358644463121891 -0.01034435536712408
-0.005358550697565079 0.039214376360177994 -0.01492959726601839 -0.018575768917798996 0.014526956714689732 -0.019266754388809204 0.017226390540599823 -0.039192479103803635
-0.01897197775542736 -0.035523753613233566 -0.015581893734633923 0.0065368604846298695 0.008371099829673767 0.022479480132460594 0.024717997759580612 0.01950083114206791
-0.008029875345528126 -0.023909060284495354 -0.036740582436323166 -0.016958732157945633 -0.017044156789779663 -0.0034439880400896072 -0.024316459894180298 -0.013325712643563747
0.004903255961835384 0.017111819237470627 -0.02888762764632702 0.0018917524721473455 -0.005952148698270321 -0.0347483865916729 0.021263642236590385 0.023568082600831985
-0.014407903887331486 0.025740083307027817 -0.024712061509490013 0.011189362965524197 -0.005758230574429035 0.005524633452296257 0.009730156511068344 -0.0053115105256438255
-0.03342777118086815 0.02822745032608509 -0.025933213531970978 -0.0036943594459444284 -0.018304020166397095 -0.00131708150729537 0.017460476607084274 -0.04993733763694763
-0.0282510407269001 -0.01982300542294979 0.0031149249989539385 -0.040375664830207825 0.02599743753671646 -0.000310400064336136 -0.009135686792433262 -0.013537805527448654
-0.015910323709249496 0.00765322707593441 -0.0124943433329463 0.03634893521666527 -0.009024067781865597 -0.012115037068724632 0.019027629867196083 0.017133967950940132
-0.018160415813326836 -0.003927512560039759 0.002508893609046936 -0.0272334273904562 -0.020502185449004173 0.00663296552374959 -0.008286764845252037 -0.022674713283777237
0.01200051885098219 0.027416987344622612 -0.008548326790332794 0.01239767111837864 0.031195949763059616 0.009609748609364033 -0.026390669867396355 0.012341619469225407
-0.04595566540956497 0.021263111382722855 -0.045777104794979095 -0.003280196338891983 -0.014037500135600567 0.0158599391579628 -0.011766932904720306 -0.0032941801473498344
-0.03730814903974533 0.003629019483923912 -0.01421923004090786 0.011090991087257862 0.021812135353684425 0.0018836992094293237 -0.0072806039825081825 0.01768582873046398

W2 f8 [10, 128]
00000000: 0000 00e0 a3ad cfbf 0000 00a0 9f3b c1bf
00000010: 0000 00e0 d694 a9bf 0000 00e0 d512 cf3f
00000020: 0000 00a0 fecc c63f 0000 0080 4d77 a03f
00000030: 0000 0040 9852 67bf 0000 0040 5ec6 b0bf
00000040: 0000 0040 cafd 7abf 0000 00c0 60e0 b0bf
00000050: 0000 0040 81d0 e1bf 0000 00c0 2453 c5bf
00000060: 0000 0020 171c c0bf 0000 0060 3f91 7ebf
00000070: 0000 00e0 8ae5 b8bf 0000 00e0 78e5 cf3f
00000080: 0000 0020 7680 95bf 0000 0000 246c bb3f
00000090: 0000 00e0 92e5 babf 0000 0080 7454 a5bf
000000a0: 0000 0040 4a9d 8f3f 0000 00e0 a4cb b3bf
000000b0: 0000 00a0 8d9b c6bf 0000 00a0 0f47 a8bf
000000c0: 0000 00e0 2553 a33f 0000 0040 a792 be3f
000000d0: 0000 0060 971d 893f 0000 0080 4c19 c3bf
000000e0: 0000 00a0 3f62 d33f 0000 00a0 db51 c93f
000000f0: 0000 0020 e778 bb3f 0000 0040 e6a8 c13f
00000100: 0000 0020 22b4 c63f 0000 0020 6994 b43f
00000110: 0000 0040 77f1 6dbf 0000 0000 8544 b8bf
00000120: 0000 0020 96e4 c63f 0000 0020 9808 cf3f
00000130: 0000 0020 ff25 b2bf 0000 0020 86b5 91bf
00000140: 0000 00c0 28b0 c03f 0000 00e0 c7a1 b23f
00000150: 0000 00a0 c55e c43f 0000 00e0 6833 a9bf
00000160: 0000 00a0 197c bfbf 0000 0000 217e c6bf
00000170: 0000 0000 1cc9 c6bf 0000 0020 850c be3f
00000180: 0000 00c0 80e2 bebf 0000 0060 bf20 b43f
00000190: 0000 0080 28f0 dcbf 0000 0060 168b c4bf
000001a0: 0000 0080 536c d53f 0000 00c0 e0a2 c8bf
000001b0: 0000 0000 6a06 d63f 0000 0020 ce07 d43f
000001c0: 0000 0040 9617 d13f 0000 0080 3047 c73f
000001d0: 0000 0020 dcd4 cfbf 0000 0060 4227 a03f
000001e0: 0000 00a0 d09c b7bf 0000 0020 1da6 cabf
000001f0: 0000 0020 87df a23f 0000 0020 824e a0bf
00000200: 0000 00c0 a07f d0bf 0000 0080 638c b0bf
00000210: 0000 0020 8c5f e0bf 0000 00c0 f896 a6bf
00000220: 0000 0020 1cbf ce3f 0000 0020 c87a b23f
00000230: 0000 00c0 33c2 9bbf 0000 0080 2f29 bdbf
00000240: 0000 0000 cb88 b2bf 0000 0000 5499 b0bf
00000250: 0000 00c0 2141 a7bf 0000 0020 1389 afbf
00000260: 0000 0060 3968 d1bf 0000 0000 d8d0 cbbf
00000270: 0000 00e0 668e dabf 0000 00e0 d52d cbbf
00000280: 0000 0040 698a dabf 0000 00e0 31b2 d43f
00000290: 0000 0080 4735 babf 0000 0020 119f c2bf
000002a0: 0000 00c0 a5b2 ce3f 0000 0080 94ef d63f
000002b0: 0000 0060 5fd1 d1bf 0000 0060 bdc8 c0bf
000002c0: 0000 00e0 00fd acbf 0000 00e0 6f95 c8bf
000002d0: 0000 0020 1323 cf3f 0000 0020 796f d3bf
000002e0: 0000 0020 8195 a53f 0000 0080 a8cc d63f
000002f0: 0000 0080 d41c c73f 0000 00a0 dd62 d13f
00000300: 0000 0020 f8d9 b83f 0000 0060 8279 c4bf
00000310: 0000 0080 cb5c b03f 0000 00c0 4b45 c73f
00000320: 0000 0040 126a dabf 0000 00a0 5173 c2bf
00000330: 0000 00c0 4d08 b8bf 0000 0060 a698 b7bf
00000340: 0000 0040 c438 86bf 0000 0040 c2b3 a23f
00000350: 0000 0020 c855 c2bf 0000 0060 a231 c53f
00000360: 0000 0060 ecf6 cb3f 0000 0000 cd03 d3bf
00000370: 0000 0060 f46d cfbf 0000 0000 fd75 b2bf
00000380: 0000 00c0 0dde c3bf 0000 00e0 18bf ce3f
00000390: 0000 0020 3077 c8bf 0000 0000 7640 d0bf
000003a0: 0000 0020 8f66 b5bf 0000 0080 a53c a7bf
000003b0: 0000 00e0 1b66 d03f 0000 00e0 e5c6 b33f
000003c0: 0000 00a0 66db db3f 0000 0080 717e ab3f
000003d0: 0000 0040 3d72 c13f 0000 0060 f292 d83f
000003e0: 0000 00a0 39cf c0bf 0000 0040 cbe3 bbbf
000003f0: 0000 00e0 5fd3 c9bf 0000 0080 66c9 d3bf
00000400: 0000 00c0 5e00 cfbf 0000 0040 5ed8 b5bf
00000410: 0000 0020 7e6c d3bf 0000 0080 a313 a03f
00000420: 0000 0060 b76b bfbf 0000 00a0 54b5 d3bf
00000430: 0000 00a0 80e8 d03f 0000 00c0 7f32 bbbf
00000440: 0000 00a0 df23 a93f 0000 00a0 63fc ae3f
00000450: 0000 0060 c128 debf 0000 00e0 79b8 9d3f
00000460: 0000 0060 31b3 98bf 0000 0060 f979 e33f
00000470: 0000 0040 511d c43f 0000 0000 000f c03f
00000480: 0000 0020 1b13 5b3f 0000 00e0 1aa6 d73f
00000490: 0000 00a0 f6d3 c1bf 0000 00a0 a4f2 5dbf
000004a0: 0000 00e0 299e 97bf 0000 0020 6c5e c7bf
000004b0: 0000 0040 0b55 bc3f 0000 00a0 19f5 ab3f
000004c0: 0000 0040 98cf a13f 0000 0000 cc3f bdbf
000004d0: 0000 0020 a47c c13f 0000 00a0 64d2 b23f
000004e0: 0000 00e0 581e b3bf 0000 0060 60ea bc3f
000004f0: 0000 0060 72ab 973f 0000 00a0 566d cebf
00000500: 0000 00c0 cb32 973f 0000 00a0 1536 c4bf
00000510: 0000 0080 e32b d2bf 0000 00a0 4928 e33f
00000520: 0000 00c0 8437 d5bf 0000 0020 3b52 a9bf
00000530: 0000 0080 e1dc ac3f 0000 00e0 b5df d43f
00000540: 0000 00c0 ad5d 833f 0000 00c0 068c b43f
00000550: 0000 0000 b922 813f 0000 00c0 b361 bbbf
00000560: 0000 0020 6e66 bf3f 0000 00c0 7dd1 b13f
00000570: 0000 0040 c4e0 d03f 0000 00a0 b5d7 c53f
00000580: 0000 0000 2fb6 d0bf 0000 0080 a6cf c5bf
00000590: 0000 0080 bcf3 d83f 0000 00e0 7992 bfbf
000005a0: 0000 00e0 7e59 d3bf 0000 0040 b2be c4bf
000005b0: 0000 00c0 d34c bc3f 0000 00a0 c946 c2bf
000005c0: 0000 0080 4a7f c5bf 0000 0040 8748 cd3f
000005d0: 0000 00c0 aefc c5bf 0000 0080 ca86 b6bf
000005e0: 0000 0000 0d93 c63f 0000 0020 5851 bf3f
000005f0: 0000 0060 948f 9b3f 0000 0020 2f7d 923f
00000600: 0000 0000 ebbb c7bf 0000 0040 484a b23f
00000610: 0000 0080 74bb c93f 0000 00a0 85e4 b53f
00000620: 0000 0020 8e37 c1bf 0000 0020 37eb 9c3f
00000630: 0000 00e0 3bfd af3f 0000 0040 a538 bf3f
00000640: 0000 00c0 b0ac abbf 0000 0040 93d3 af3f
00000650: 0000 0040 9554 903f 0000 00a0 657c d73f
00000660: 0000 00a0 7efc d43f 0000 0020 1d47 c43f
00000670: 0000 00c0 b8a6 ce3f 0000 00a0 e139 dd3f
00000680: 0000 0020 5e91 db3f 0000 0000 f830 c33f
00000690: 0000 0080 2fbd a0bf 0000 00c0 65f9 abbf
000006a0: 0000 00c0 0a4d b3bf 0000 0000 599d bebf
000006b0: 0000 0040 af14 bfbf 0000 00c0 2bd5 da3f
000006c0: 0000 0060 6d46 c3bf 0000 0040 9a38 d23f
000006d0: 0000 00e0 8aca c5bf 0000 0080 78db bdbf
000006e0: 0000 00a0 8085 cdbf 0000 00c0 b769 c2bf
000006f0: 0000 0020 972c db3f 0000 00c0 9d5f d13f
00000700: 0000 0040 7c51 bc3f 0000 0000 091c b73f
00000710: 0000 00c0 344a b5bf 0000 0000 52eb b6bf
00000720: 0000 0000 7c81 ae3f 0000 0000 1048 d93f
00000730: 0000 0080 6bb9 b5bf 0000 00a0 330c c3bf
00000740: 0000 0040 1da7 cb3f 0000 0040 64bb babf
00000750: 0000 00a0 b631 ca3f 0000 0000 4eb7 acbf
00000760: 0000 0080 4dda aabf 0000 0080 77be b03f
00000770: 0000 0040 4c23 bc3f 0000 0080 9dd0 c33f
00000780: 0000 00a0 75e2 86bf 0000 0060 a3ed c13f
00000790: 0000 0020 49e2 d03f 0000 00e0 a18b c73f
000007a0: 0000 0000 48b0 b1bf 0000 0000 9d81 d23f
000007b0: 0000 0080 b113 b4bf 0000 0040 eff5 afbf
000007c0: 0000 00c0 a382 c3bf 0000 0000 fa5d aebf
000007d0: 0000 0080 d4b1 c1bf 0000 00a0 cefc b13f
000007e0: 0000 0000 2e0b 873f 0000 00c0 ee37 c8bf
000007f0: 0000 0000 42c9 a83f 0000 0040 5e8a cdbf
-0.24748657643795013 -0.13463206589221954 -0.049963679164648056 0.24276231229305267 0.17813093960285187 0.032160207629203796 -0.0028470014221966267 -0.06552685797214508
-0.006589689292013645 -0.06592373549938202 -0.5567022562026978 -0.166599839925766 -0.12585724890232086 -0.007462737616151571 -0.09725254029035568 0.24919043481349945
-0.020997853949666023 0.10711884498596191 -0.10506551712751389 -0.041659966111183167 0.015436725690960884 -0.07732611149549484 -0.17662210762500763 -0.04741715267300606
0.037743743509054184 0.11942525207996368 0.012263472191989422 -0.14920955896377563 0.30287161469459534 0.1978106051683426 0.10731358081102371 0.13796690106391907
0.17737223207950592 0.08038956671953201 -0.003655178938060999 -0.09479552507400513 0.1788509041070938 0.2424497753381729 -0.07089228183031082 -0.01729402132332325
0.1303759515285492 0.07278107851743698 0.15914221107959747 -0.04922034963965416 -0.12298736721277237 -0.17572414875030518 -0.17801237106323242 0.11737854033708572
-0.12064366042613983 0.07862468808889389 -0.4521580934524536 -0.1604946106672287 0.334736704826355 -0.19247063994407654 0.34414148330688477 0.3129763901233673
0.26706463098526 0.1818600296974182 -0.24868346750736237 0.03154952451586723 -0.09223655611276627 -0.20819438993930817 0.03686163201928139 -0.0318489708006382
-0.2577897906303406 -0.06464216113090515 -0.5116634964942932 -0.04412057250738144 0.24020721018314362 0.07218600064516068 -0.02710800990462303 -0.11390969157218933
-0.0723997950553894 -0.06483960151672363 -0.045418791472911835 -0.061592672020196915 -0.27198633551597595 -0.21731090545654297 -0.4149415194988251 -0.21233628690242767
-0.41469794511795044 0.3233761489391327 -0.10237547755241394 -0.14547933638095856 0.23982688784599304 0.3583728075027466 -0.2784040868282318 -0.13112609088420868
-0.05661776289343834 -0.1920604556798935 0.24325789511203766 -0.3036787807941437 0.04215625301003456 0.3562413454055786 0.18056732416152954 0.2716592848300934
0.0970759466290474 -0.15995816886425018 0.06391593813896179 0.18180224299430847 -0.4127240777015686 -0.14414425194263458 -0.09387670457363129 -0.0921730026602745
-0.010850461199879646 0.03652770072221756 -0.14324285089969635 0.1655772179365158 0.21847300231456757 -0.2971069812774658 -0.24554304778575897 -0.07211285829544067
-0.15521404147148132 0.24020682275295258 -0.19113732874393463 -0.253934383392334 -0.08359617739915848 -0.045384570956230164 0.25623223185539246 0.07725369185209274
0.4352661669254303 0.0536990612745285 0.13629880547523499 0.38396891951560974 -0.13132400810718536 -0.1089446097612381 -0.20176313817501068 -0.3091675043106079
-0.24219879508018494 -0.08533276617527008 -0.3034968674182892 0.03139983117580414 -0.12273737043142319 -0.30794253945350647 0.26419082283973694 -0.10623930394649506
0.0491018183529377 0.060519326478242874 -0.47123751044273376 0.0290240328758955 -0.02412106655538082 0.6086394190788269 0.157144695520401 0.125457763671875
0.0016525044338777661 0.36951324343681335 -0.13928110897541046 -0.0018278701463714242 -0.023064283654093742 -0.18256904184818268 0.11067266762256622 0.054604340344667435
0.03478694707155228 -0.11425471305847168 0.13661624491214752 0.07352284342050552 -0.07468181103467941 0.11295130103826523 0.02311495505273342 -0.23771174252033234
0.022654708474874496 -0.15790052711963654 -0.2839287519454956 0.5986679196357727 -0.33151358366012573 -0.04945549741387367 0.056372687220573425 0.3261542022228241
0.009456021711230278 0.08026163280010223 0.008367009460926056 -0.10695956647396088 0.12265671044588089 0.069602832198143 0.2637186646461487 0.17064543068408966
-0.2611196041107178 -0.1703994870185852 0.38987648487091064 -0.123328797519207 -0.3023373782634735 -0.16206958889961243 0.11054728925228119 -0.14278526604175568
-0.16794711351394653 0.22877588868141174 -0.171773761510849 -0.08799424767494202 0.17636263370513916 0.12233496457338333 0.026914900168776512 0.018055664375424385
-0.18542230129241943 0.07144595682621002 0.20103317499160767 0.08551821857690811 -0.1345079094171524 0.028241025283932686 0.06247889623045921 0.12195809185504913
-0.054051898419857025 0.06216106563806534 0.015947658568620682 0.3669675886631012 0.32791104912757874 0.15842022001743317 0.2394629418849945 0.4566577970981598
0.43074753880500793 0.1499319076538086 -0.032693371176719666 -0.0546371266245842 -0.07539431750774384 -0.11958843469619751 -0.12140937149524689 0.4192609190940857
-0.15058676898479462 0.2847047448158264 -0.17024360597133636 -0.11663010716438293 -0.23063667118549347 -0.14385125041007996 0.4245965778827667 0.27146095037460327
0.11061836779117584 0.09027153253555298 -0.0831635445356369 -0.08952820301055908 0.059581637382507324 0.3950233459472656 -0.08486053347587585 -0.14880986511707306
0.21603742241859436 -0.10442186892032623 0.2046421319246292 -0.05608600378036499 -0.052446767687797546 0.06540629267692566 0.10991360247135162 0.15480393171310425
-0.011174124665558338 0.14006464183330536 0.2638113796710968 0.18394874036312103 -0.06909608840942383 0.28916096687316895 -0.07842549681663513 -0.062423206865787506
-0.15242430567741394 -0.059310734272003174 -0.13823944330215454 0.07026378065347672 0.011251792311668396 -0.18920692801475525 0.04841047525405884 -0.23078516125679016

b2 f8 [10]
00000000: 0000 0000 2b74 803f 0000 0080 7a97 bdbf
00000010: 0000 00a0 a579 b2bf 0000 00a0 0822 b7bf
00000020: 0000 00c0 79f1 b9bf 0000 0020 07a9 a23f
00000030: 0000 0060 6ddb a0bf 0000 0040 2d21 c2bf
00000040: 0000 00a0 53e8 d93f 0000 0080 4886 c93f
0.008034072816371918 -0.11559262871742249 -0.07216868549585342 -0.09036306291818619 -0.1013408750295639 0.03644583001732826 -0.032924097031354904 -0.14163747429847717
0.40480509400367737 0.19941049814224243
