mnist_model_split.npz (npz, 408046 bytes, 4 tensors)

W1 f4 [128, 784]
000000 9a eb 4d bb c2 87 88 bc a8 31 63 bc a3 01 96 bc
       -0.0031420947 -0.016666297 -0.013866819 -0.018311327
000010 d3 0f 6a 3b ed bb 39 bd eb fb de 3b 11 52 91 3c
       0.0035714998 -0.045345236 0.0068049333 0.017739328
000020 c4 ce e0 bc 67 ab 0d bc 4f 87 31 3c 83 85 0e 3a
       -0.027442344 -0.008646823 0.010835483 0.0005436765
000030 88 b2 b3 3c e2 06 a9 3c 4f 5c f6 bc c2 64 c7 bb
       0.021935716 0.020633165 -0.030073313 -0.0060850093
000040 0a dd af 3b 88 17 c1 3c d9 6f af bc d9 c5 54 bc
       0.005366926 0.02357079 -0.021415638 -0.012986624
000050 1d a6 af bc 1c 4a b1 bc 6e a3 f4 bc c7 2f 2a bd
       -0.021441514 -0.021641783 -0.029863086 -0.04154947
000060 4b 13 38 bc 78 22 7b bb 36 4d 40 bd e8 3a de bc
       -0.011235069 -0.0038320106 -0.046948634 -0.027127698
000070 3d 0d 4d bd 7f 0e cc 3b 67 b5 27 3c b0 00 53 bd
       -0.050061453 0.006227314 0.010236121 -0.051514328
000080 8e f8 1c 3c ef 38 76 3c e8 db 05 bd 24 7f 90 bc
       0.009580744 0.015028222 -0.032680422 -0.01763875
000090 ef e2 e9 3b 1a 2c 74 3b 1c cc db bc eb e9 0f 3c
       0.0071376483 0.0037257732 -0.026830725 0.008783798
0000a0 15 e6 be 3c f7 e3 a7 3c 87 da fd 3b 8c 72 04 3d
       0.023303071 0.020494444 0.0077469978 0.032335803
0000b0 29 72 85 3d 17 52 6d 3d 91 5a 4b 3c 21 b7 02 3d
       0.06515915 0.057939615 0.012411729 0.031912927
0000c0 40 30 de 3c cb 7f d7 bc 3c 42 04 bd 8c 7c ea bc
       0.027122617 -0.026306054 -0.03228973 -0.028623842
0000d0 1c 11 be 3b f0 50 ff bc 3f b4 2a bd 51 d4 05 bc
       0.0058003794 -0.031166524 -0.041675802 -0.008168296
0000e0 4d 0b 00 3c 4d 11 18 bd e0 39 24 bd 19 b2 86 3c
       0.007815194 -0.037125874 -0.040094256 0.016442345
0000f0 07 12 28 bd ac eb eb bb 9e d9 4b bc af c7 59 bd
       -0.041032817 -0.007199725 -0.012442021 -0.05316895
000100 08 61 72 bb 70 c2 40 bd 80 e0 ca bc 27 76 3e 3c
       -0.0036984105 -0.04706043 -0.024765253 0.011624849
000110 bb d7 f2 3c 60 6b 1f 3d a7 09 6b 3d 59 9f a2 3d
       0.029643884 0.03892076 0.057382252 0.079405494
000120 0f cd 00 3e 22 c8 08 3e 13 cc a3 3d 90 4e 8a 3d
       0.12578224 0.13357595 0.079979084 0.06753266
000130 da 21 52 3c 70 9c 8e 3c ae b9 28 bd 59 cf af bb
       0.012825454 0.01740858 -0.041192703 -0.005365294
000140 b2 6a 61 ba 14 2e c8 bc 34 a1 81 3a 87 a0 6d 3c
       -0.00085989677 -0.024436034 0.0009889961 0.014503605
000150 2a 54 ff bc 4f 70 08 3c 6b e5 41 3c b5 c6 af bc
       -0.031168062 0.008327558 0.011834483 -0.021457056
000160 81 e9 8d bc e6 5f c7 bc fe d6 62 bd 36 49 1d bd
       -0.017323257 -0.02433772 -0.055380814 -0.038399898
000170 9f bc a4 bd ae 44 37 bd 29 08 82 bb 28 d8 45 3c
       -0.08043789 -0.044743232 -0.003968258 0.012075461
000180 76 54 fa 3c 1c 87 46 3d ff 08 d4 3d 11 48 10 3e
       0.030557852 0.048468694 0.10353278 0.14089991
000190 3a 96 15 3e b7 14 18 3e b1 52 11 3e 07 60 0f 3e
       0.14608088 0.14851652 0.141917 0.14001475
0001a0 6e cd 9d 3d ec 39 a5 3a 89 d6 84 3c 31 63 e4 3c
       0.07705198 0.0012605763 0.01621558 0.02787933
0001b0 c0 61 9b bc 04 3c 8d bb 7e 26 a1 bc 73 46 52 bd
       -0.01896751 -0.004310133 -0.019671675 -0.051336717
0001c0 c3 83 4a bc fc bb 19 bc d1 63 67 3c 75 fd 17 3c
       -0.012360516 -0.009383198 0.014122919 0.009276737
0001d0 57 9d 2e bd a4 4c fc bc 90 0b fa bc f8 b9 8d bd
       -0.04263052 -0.030798264 -0.030523092 -0.06920236
0001e0 b6 66 c8 bc d9 67 ab bd e5 45 86 bc 84 8e 8d bd
       -0.024463039 -0.08369417 -0.01639075 -0.06911948
0001f0 9b 75 1a bd 7b 19 e2 bb 3e 64 1f 3d 51 6c b7 3d
       -0.037709814 -0.00690001 0.038913958 0.089562066
000200 20 1d 0d 3e 47 b1 44 3e 97 71 3e 3e 11 53 5a 3e
       0.13780642 0.19208251 0.18598019 0.2132075
000210 4c 24 d8 3d ad 7f c5 3d c8 57 00 3d be f6 22 bb
       0.10553798 0.09643493 0.031333715 -0.0024866308
000220 ad 16 05 bc 16 6b 0f bd 53 11 2a bd 79 8f 70 bd
       -0.008123082 -0.035014234 -0.041520428 -0.058730576
000230 c9 43 a1 bc 89 1d cf bc 6e 87 f0 bc 1e 95 9e bb
       -0.019685643 -0.025282638 -0.029361453 -0.0048395535
000240 63 7e c1 bc ef c1 c0 bb 3a 59 8b bd 2e e6 3f bd
       -0.023619836 -0.0058824937 -0.06804128 -0.046850376
000250 ca 8b 26 bd ca 5f 9c bd 28 94 55 bd 6b 9a a1 bd
       -0.040660657 -0.07635458 -0.052143246 -0.07890781
000260 a3 56 fe bc 93 4e b1 bc 09 5d 9f bc 8d ab 99 3c
       -0.031047171 -0.021643912 -0.019453542 0.01875856
000270 59 14 bb 3d 70 b0 2d 3e db f6 5a 3e 6a e3 3d 3e
       0.091347404 0.16961837 0.2138323 0.18543783
000280 17 b5 3a 3e 13 5a c9 3d a2 28 84 3d a7 a5 0e 3d
       0.18233143 0.098316334 0.064530626 0.034825947
000290 8d 3e 6e bc 08 f4 9a bb c1 26 4a bd e4 72 b8 3b
       -0.01454128 -0.004728798 -0.049353365 0.0056289304
0002a0 ad f6 f0 3b d0 78 3d bd f9 fe e2 3b df bf 5d bc
       0.007353625 -0.046257794 0.0069273678 -0.013534515
0002b0 1c 48 7a bd f7 5f b6 bc 51 de 24 bd 98 40 b7 bc
       -0.061103925 -0.022262556 -0.04025108 -0.022369668
0002c0 bb 71 63 bd 43 0e 27 bd 12 93 df bc aa 7f 28 bd
       -0.055528384 -0.040785085 -0.027291808 -0.041137375
0002d0 4e 28 e7 bd 22 1f 81 bd c0 da c1 bd 76 ca bf bc
       -0.112869844 -0.06304766 -0.094655514 -0.02341197
0002e0 1d 4c f8 3c 9f 78 b9 3d 9b 37 34 3e 12 5e 83 3e
       0.030309731 0.0905621 0.17599337 0.25657707
0002f0 cf cf 5a 3e 9a 56 11 3e d3 88 f3 3d 3c 42 89 3d
       0.21368335 0.14193192 0.118913315 0.06702086
000300 2a 9e 9b 3c ec 38 83 3c 41 d7 4c bd c4 cd 94 bc
       0.018996317 0.016018353 -0.05000997 -0.018164523
000310 d2 6c 09 bd 4f b7 a5 bc c8 89 a5 bc 26 8c 52 bd
       -0.033551045 -0.02022901 -0.0202073 -0.051403187
000320 5b b3 6c bc d8 a5 a1 bb eb 3e 39 bd cf 33 cb bb
       -0.014447059 -0.0049331 -0.04522602 -0.0062012444
000330 c0 63 56 bc e6 50 43 bd 3e 35 46 bd 57 b6 ce bd
       -0.013085306 -0.047684573 -0.04839062 -0.10093372
000340 17 dc 98 bd 20 0b a6 bd d0 e7 df bd a8 bc 83 bd
       -0.07463854 -0.08107591 -0.109328866 -0.06432468
000350 77 e9 31 bd 43 96 1d 3d 46 9d 2d 3e 5a f1 5c 3e
       -0.04343554 0.03847338 0.16954526 0.21576443
000360 77 3c 63 3e 4d 3a 1f 3e 48 15 fb 3d 7c 1c be 3d
       0.22191034 0.15549584 0.122599185 0.09282777
000370 9a 99 47 3d 43 a7 40 3c c2 b7 b9 bb 14 a3 32 bd
       0.04873047 0.011758628 -0.0056676576 -0.043612555
000380 3e 9f 11 bd 4a 68 0f bd 3f 5e 1c bd 2d 51 2c bd
       -0.035552256 -0.035011567 -0.038175818 -0.042069603
000390 44 dd 5c bc d9 0d 70 bd 64 54 98 bc 73 af 32 bd
       -0.013480488 -0.058606956 -0.018594928 -0.043624353
0003a0 89 f8 1a bd 95 ca 33 bd c9 1a 39 bd a2 24 86 bd
       -0.037834678 -0.04389437 -0.04519156 -0.06549956
0003b0 6a 96 3b bd c1 82 be bd f7 e1 93 bd a8 ad c0 bd
       -0.045797743 -0.09302283 -0.07220834 -0.09408122
0003c0 97 bd 50 bc de 2a b6 3c 4a 94 cb 3d 57 ba 3d 3e
       -0.012740514 0.022237238 0.09940393 0.18528114
0003d0 e2 5a 7c 3e b3 97 6c 3e 82 f1 01 3e a2 37 05 3e
       0.24644044 0.23104744 0.12689784 0.13009503
0003e0 a2 c8 8b 3d a8 be 2a bc 34 54 3d 3c 62 a4 90 bc
       0.06825377 -0.010421433 0.01155572 -0.017656509
0003f0 e2 cf 82 bc 1c 43 ab 3b d5 23 12 bd 4b 40 d6 bc
       -0.015968267 0.005226506 -0.035678703 -0.026153704

b1 f4 [128]
000000 df 27 47 bc 28 3c b9 bb 02 04 e1 bb 53 5d 80 bb
       -0.012155502 -0.005652923 -0.006866933 -0.003917375
000010 fa 48 2b 3c 12 b4 c5 bc c0 8b ee bb fa 40 7e bc
       0.010454411 -0.024133716 -0.007279843 -0.015518421
000020 d8 51 55 ba 0f b7 e3 3b e7 79 29 bd a6 6d c2 bc
       -0.0008137501 0.0069493125 -0.04137602 -0.023733925
000030 c0 9e 74 3d cc f9 b6 bc 5c fc e0 bc 82 ad 81 bc
       0.05972171 -0.02233591 -0.027464084 -0.015829805
000040 90 5b 1b bd a4 ca d5 bc 5c cc 99 3c b8 20 84 bb
       -0.037929118 -0.026097603 0.018774204 -0.0040322207
000050 f1 c2 03 3c 36 4c b3 3c b3 45 fb 3c 43 d3 56 3c
       0.008042083 0.021886926 0.030672884 0.013111892
000060 b2 64 91 bb 81 a0 08 bd 66 b2 c1 3c 19 8d 2d 3d
       -0.0044370526 -0.033356193 0.023644637 0.04237089
000070 29 5d 03 bd 6b 5c a9 bc 56 19 69 bc d8 26 57 3c
       -0.032071266 -0.020673951 -0.014227232 0.01313182
000080 b3 6b 52 3d 25 01 48 bb b1 2e 17 bc da 0f e6 3c
       0.05137224 -0.003051826 -0.009227441 0.02808373
000090 10 1f ac bc 24 b0 b8 bc ce 11 40 bc a4 26 b7 bc
       -0.021010906 -0.022544928 -0.011722995 -0.022357292
0000a0 87 e2 22 bd bf 89 10 3d f0 3d 2b 3b b4 ed b2 bc
       -0.039766815 0.035287615 0.0026129447 -0.021841861
0000b0 3a 5e 84 bc ee 6f 54 bd 3a 44 c0 bb 9f bd a0 3c
       -0.016158212 -0.051864557 -0.0058675082 0.019621668
0000c0 1b ec 7f 37 2d fe 91 3a f6 2a 26 bd 1c 61 d1 bb
       1.5254157e-05 0.0011138372 -0.040568314 -0.00638975
0000d0 a5 f8 e5 bc 51 df 92 3c 28 ae 05 bd e4 c0 d3 3c
       -0.028072665 0.017928751 -0.03263679 0.025848813
0000e0 07 47 25 bc 24 ba 71 bc 45 9d 8a 3c 55 49 2a bd
       -0.010087735 -0.014753852 0.016920695 -0.04157384
0000f0 49 2d ff 3c 45 11 0c 3c b4 dc 4b bb a7 94 73 3b
       0.031149523 0.008549039 -0.003110689 0.003716746
000100 cf 26 ec bb da 87 c2 ba db ae ca bc f1 ae d8 3b
       -0.007206775 -0.0014841512 -0.02474158 0.0066126515
000110 25 7b 82 bc 2d e4 e2 bc 0b 7d 0e bd 29 3f 0c 3d
       -0.01592786 -0.027696693 -0.03478722 0.03423992
000120 41 4c 42 bc 34 4d c0 bc e4 5d cf bc b2 a3 15 bc
       -0.011859001 -0.023474313 -0.025313325 -0.009133266
000130 ef e8 9e 3c ee de 2b 3b 77 d5 d6 bc 42 64 d9 3c
       0.01939818 0.0026225406 -0.026224835 0.026537064
000140 4f 6d 56 bd 0e dd 09 3b f7 5b ff bc 84 f8 40 bc
       -0.05235034 0.00210363 -0.031171782 -0.011778001
000150 c8 e3 04 3d cd 0a 1f 3c cd c8 cf bc f3 26 cd 3b
       0.03244379 0.009707165 -0.025364304 0.0062607466
000160 87 f6 2c 3d 2e 02 18 3d a2 a1 bf bb 82 fd 4c bd
       0.042227294 0.037111454 -0.0058481256 -0.05004645
000170 4a 8d 3a bc 3c 55 c9 bb e9 20 1c bd e8 ae 61 3c
       -0.011386225 -0.006144194 -0.038117323 0.013774611
000180 95 30 3a bc e6 10 a4 bc ed 54 15 bd 0e 29 ef bb
       -0.011364122 -0.020027589 -0.036457945 -0.0072985953
000190 64 ef f2 bc af 8f a2 bc 02 9c 8e bc 4b 2c 82 3c
       -0.029655166 -0.019843904 -0.017408375 0.015890261
0001a0 b8 98 35 bd e7 0c 7c bb d1 b0 49 bb 39 cb e2 bb
       -0.044335097 -0.0038459839 -0.0030775557 -0.0069211987
0001b0 3c 1f 30 bc de 27 99 3b 24 2c 69 bb bc 3c c1 bc
       -0.010749634 0.004673942 -0.0035579288 -0.02358853
0001c0 9a 69 9f 3b 58 f4 93 bc b1 b1 1b bd c3 0f 98 bb
       0.0048648836 -0.018060848 -0.038011257 -0.004640551
0001d0 74 a7 59 3a 26 55 ca 3b a1 4d d7 bc 39 0e 2c bd
       0.00083028455 0.0061747013 -0.026282134 -0.04200575
0001e0 bc 31 3c 3c 07 77 61 b8 0f 37 15 3d 03 dc be bc
       0.011486467 -5.3755033e-05 0.03642946 -0.02329827
0001f0 81 91 68 bd 43 1e 6d bd 0b 6c cf bc 3d fc 11 3c
       -0.05677939 -0.057890188 -0.025320074 0.008910236

W2 f4 [10, 128]
000000 2e 5e 98 3e 5d b0 2d 3e 36 4c a8 bd 5a 3a a0 3e
       0.29759353 0.16961809 -0.08217661 0.3129452
000010 28 13 26 bd ce f6 27 3d 76 9e d0 bd df 07 a6 be
       -0.040545613 0.041006856 -0.10186474 -0.3242788
000020 d0 f1 81 3e 3d 85 83 bc fd d5 6c be 86 2e 9f 3a
       0.253798 -0.016054744 -0.23128505 0.0012144602
000030 10 70 89 3d 91 53 42 3e f7 18 04 be ac 85 58 3d
       0.06710827 0.1897719 -0.12900148 0.052861854
000040 cb b3 cc 3d 1b 64 2b be d2 89 c8 3b bd 6c 74 be
       0.0999523 -0.16737406 0.006119945 -0.23869605
000050 af 1a 94 be 82 8e 4c be e3 61 b5 bd 43 0b e3 bd
       -0.28926608 -0.19976237 -0.08856561 -0.110861324
000060 a6 9f 2d bc f4 f8 a4 bd 43 7f 65 be 6d a9 74 3e
       -0.010597145 -0.080552965 -0.22411828 0.23892756
000070 e6 1f 0a bf f4 59 4a 3e 8e b9 8c 3e e3 ab 62 be
       -0.53954923 0.19760877 0.27485317 -0.22135882
000080 45 b5 d6 3e c5 eb 70 bd ae 76 58 be 33 5a d3 be
       0.41935173 -0.058818597 -0.21139023 -0.41279754
000090 45 a8 c4 bd 87 ef 33 3e 56 be 35 bd 01 96 fc 3d
       -0.09602407 0.17571841 -0.04437097 0.123332985
0000a0 1c b9 bb be b3 da d8 bc da 86 be bd 67 1a 48 bc
       -0.36664665 -0.026471471 -0.09303065 -0.012213326
0000b0 ef a8 d0 3c ad f5 48 3e 14 65 64 bd 4f f6 56 3e
       0.025471179 0.19624968 -0.055760458 0.20992397
0000c0 70 3b b7 bd 32 d8 1b 3e 42 5c 17 3e 18 e4 4d 3c
       -0.08946884 0.1521919 0.14781287 0.012566589
0000d0 26 b9 11 bd 8f 6e a8 3e 78 a0 8f be b1 56 a9 bd
       -0.035576962 0.3289685 -0.28052115 -0.08268488
0000e0 9e 6c 24 3d 33 20 70 3e 1f 32 18 bf 76 64 9d 3e
       0.040142648 0.23449783 -0.5945148 0.30740708
0000f0 a2 cb db bc 00 54 8b bd 4f 4c 7e 3e 1c eb 37 3e
       -0.026830498 -0.06803131 0.24833797 0.17960781
000100 5d 48 1a be ba 79 cb 3e 26 9e 81 bc a3 b2 7b 3b
       -0.15066667 0.39741307 -0.015822481 0.0038406036
000110 05 2d 89 3e 20 e8 84 bd 8b 74 d3 bd ab 1c 26 3e
       0.2679216 -0.06489587 -0.10324963 0.16221873
000120 d3 72 4d be fd 81 05 bf ca 7b 80 be ab 18 9f 3c
       -0.20063333 -0.5215147 -0.25094444 0.019420942
000130 87 3e a2 3d 4a 52 99 be 9d 47 3d 3d 52 05 35 be
       0.079220824 -0.29945594 0.046210874 -0.17677811
000140 0a 2c 9e bd 7f 5c fe 3d db 25 81 3e c0 af 1d 3e
       -0.077232435 0.12419986 0.25224194 0.15399075
000150 87 26 e2 be 71 58 fa bd ba 67 4e 3e e2 ca 77 be
       -0.4417002 -0.122239 0.20156756 -0.24198487
000160 0d a0 e1 3e 23 17 67 bd 52 70 c6 bd 6a 2b 66 be
       0.44067422 -0.05641855 -0.09689392 -0.22477499
000170 ea 4c 85 bc 1e 51 a1 bd 6d 4c 30 bd 3a b2 18 3e
       -0.016272027 -0.078768 -0.043041635 0.14911738
000180 2f 3b 22 3e aa f3 f8 3d 53 83 e1 bd 08 77 c0 bc
       0.15842889 0.1215585 -0.11011376 -0.023494259
000190 d0 df 2b 3e ba 49 c2 3d 7f 41 23 3d 5a 4e 0f be
       0.16784596 0.094867185 0.039857384 -0.13994732
0001a0 9f 4a 19 3e 7e 73 b1 bd 03 f7 cb bd c6 10 1b bd
       0.14969872 -0.086646065 -0.09959223 -0.037857793
0001b0 73 98 23 be b5 6b 44 3e fc 82 a4 bd 02 ce dd bd
       -0.15976124 0.19181712 -0.08032796 -0.108303085
0001c0 0a 0f a5 3e ec 1e 1b 3e ce 93 45 3d ea 86 e2 be
       0.32238036 0.15148515 0.04823666 -0.44243556
0001d0 8f 3a 4b 3d 8e a2 9b be ba 18 50 3e 6e 9f 14 3e
       0.049616393 -0.30397457 0.20321932 0.14513943
0001e0 37 47 72 3e bd 2c 00 be ee 6a 8b be 91 03 12 3e
       0.23659979 -0.12517066 -0.27230018 0.14259173
0001f0 81 11 3b be 0d 37 61 be 76 be 28 be 15 ee 85 3c
       -0.18268396 -0.21993656 -0.16478905 0.016348878
000200 23 5e 58 ba 22 d7 fa bd 0a 59 9d 3c 08 63 bf 3e
       -0.00082537736 -0.122480646 0.019207496 0.37380242
000210 e4 aa 35 3d 31 19 f6 bb 20 cf df 3c 4b 92 9f 3c
       0.044352427 -0.0075103273 0.027320445 0.019478938
000220 57 77 98 be 24 08 3c 3d 7e f3 51 3e 8d b1 d1 be
       -0.2977855 0.0459062 0.20503041 -0.40955773
000230 6a 76 84 be 58 5f 3f 3d 61 56 98 be e7 f1 4b 3d
       -0.25871593 0.046721786 -0.29753402 0.049791243
000240 7e 95 a5 3e ae 63 19 3e 8c 95 5c bd 39 08 65 3e
       0.32340616 0.14979431 -0.053853557 0.22366418
000250 f4 a6 9a bd 34 6d a7 3e 36 53 79 bc b4 20 9f bd
       -0.07551375 0.32700503 -0.015217593 -0.077699095
000260 25 23 b8 3c 4b bd 40 3d 1e b9 ba bd 71 0f 11 3e
       0.022477696 0.047055524 -0.091173396 0.14166047
000270 77 de 8a be de d7 d6 3d 27 2c 06 be 58 0c 06 3e
       -0.27122852 0.10490392 -0.1310278 0.13090646
000280 e1 81 11 3e fd 9e ab 3b a0 b7 7a 3e 4a aa 9c be
       0.14209701 0.0052374587 0.2448411 -0.3059867
000290 10 6e 1d be f5 39 5f be 41 08 54 3c 7b 89 12 3b
       -0.15374017 -0.21799453 0.012941421 0.0022359777
0002a0 0e bb 0f 3f 2b 7c d2 bd 2a c5 0b 3f a0 aa 93 3d
       0.561448 -0.102775894 0.54597723 0.072102785
0002b0 0b 9a a1 3d eb b7 1f be 46 5f 9f 3d 6e f0 cc 3d
       0.078907095 -0.15597503 0.07781844 0.10006796
0002c0 84 c2 82 bd 29 59 95 be 3e ca 60 3e ea 33 32 3d
       -0.06384757 -0.29169586 0.2195215 0.04350654
0002d0 8d 01 c0 bd ed 29 dd 3e a0 79 2f 3e 69 1c 8e be
       -0.09375296 0.4319605 0.1713624 -0.2775605
0002e0 39 f2 d5 bd 0b 18 55 bd 5f 18 c8 3e 86 8f aa 3e
       -0.10446591 -0.052024882 0.39081094 0.33312625
0002f0 65 8e 86 3d cf e4 b2 bd 7d d5 02 be 33 04 6a 3e
       0.06570128 -0.08735048 -0.12776752 0.22853164
000300 6e 6e 64 3d 06 d3 bf 3d fc c7 c0 be a1 74 ad 3e
       0.055769376 0.093664214 -0.37652576 0.33878043
000310 7d 63 37 bd 7c e5 92 bd dd dc cd 3e 9f 74 4f be
       -0.044772614 -0.07172677 0.40207568 -0.20259331
000320 3a 6e 54 3e eb ab 1c 3e 77 3c 6d 3e b8 91 86 bd
       0.20745173 0.15299957 0.23167597 -0.065707624
000330 15 1a 80 3e ff c3 60 3e 4a 9b 3a bd f4 30 5d be
       0.250199 0.21949767 -0.04555825 -0.21600705
000340 a5 a4 cd 3d fd a2 80 bd fd 8b 9c 3e f7 67 57 be
       0.10041169 -0.062810875 0.30575553 -0.21035753
000350 43 ce 36 be ad 0d 63 3e 19 c5 2b be 02 a0 72 3e
       -0.1785212 0.22173186 -0.16774406 0.2369385
000360 0c 65 ee bd 91 f9 5a 3d 76 b1 50 be 03 cb a0 3d
       -0.11640367 0.05346066 -0.20380196 0.078512214
000370 97 3a b5 bd 06 8b 98 bd 27 72 ad 3d ae 5d 0c 3e
       -0.08849066 -0.074483916 0.084690385 0.13707611
000380 c0 17 8b be a1 81 88 3d de b5 c9 3e 2a 84 86 bd
       -0.27166557 0.0666535 0.39396566 -0.06568177
000390 82 66 39 bd 71 cf 25 be 59 f8 bd bd 41 fd 80 be
       -0.045263775 -0.16192414 -0.09275884 -0.25193217
0003a0 eb 44 3b 3e 77 64 66 bd 4d 30 43 3e b3 b2 55 bc
       0.18288009 -0.056248154 0.19061394 -0.0130430935
0003b0 85 04 d9 3e dd 37 a9 3b 7d 28 28 bd 8c 03 23 be
       0.4238626 0.00516413 -0.041054238 -0.15919322
0003c0 0e 41 a9 bd 89 06 99 be 1e bb cf 3d 89 7f 21 3e
       -0.08264361 -0.29887798 0.10143112 0.15771307
0003d0 40 85 d4 3e 62 3c 95 3e 26 dd c6 be 7e a9 45 3e
       0.41507912 0.2914763 -0.38840598 0.19302937
0003e0 37 9d d7 bd 09 06 d5 be d3 3f a7 bb 2c c5 2a be
       -0.10528033 -0.41606167 -0.005104044 -0.16676778
0003f0 0d 4d fc 3d 43 f8 92 3e 53 63 ac 3d c7 27 95 3e
       0.12319384 0.28705034 0.08417382 0.2913191

b2 f4 [10]
000000 0c ba 01 3d fe 21 0b be f4 fb 63 be dc ae 97 bd
       0.03167157 -0.13587186 -0.22264081 -0.07406399
000010 f2 38 8c bd 05 07 86 3c 0b 28 2b bd 83 b2 4b be
       -0.06846799 0.016360769 -0.041786235 -0.19892316
000020 d0 97 ad 3e 02 5e 26 3e
       0.33904886 0.16246799
