mnist_model_split.npz (npz, 408046 bytes, 4 tensors)

W1 f4 [128, 784]
000000 7a 0d 14 bb bc 13 37 3d 78 9f ca 3c 2b 1b df 3c
       -0.002259104 0.044696555 0.024734244 0.027234634
000010 83 e6 9e 3c e6 da 91 bc f6 58 81 bc 89 c2 2b bc
       0.019397026 -0.017804574 -0.01578949 -0.0104833925
000020 ee 8f c6 3c 94 61 55 3d fe be 2d bc 6e c4 95 3b
       0.024238553 0.05209501 -0.010604618 0.0045705354
000030 68 dc 32 3d 32 0e d8 3b e9 e7 a2 3c 31 84 dd 3c
       0.043667227 0.006593489 0.019885974 0.027040573
000040 d6 74 c5 3b 29 2d dd ba b2 7c ea 3b f3 23 2c bc
       0.006025891 -0.0016874421 0.007155978 -0.010506618
000050 b2 2b 13 bb 81 c5 e5 bb 3a 82 96 3a 54 16 eb 3c
       -0.0022456464 -0.0070120697 0.0011482902 0.02869717
000060 76 b3 42 3c d0 a0 d6 3c 19 0e 11 ba 28 e3 b6 bc
       0.011883607 0.026199728 -0.0005533412 -0.022325113
000070 48 86 1f 3d 31 8b 0e 3d 42 e0 82 bc 78 73 3c 3c
       0.03894642 0.034800712 -0.015976075 0.011502139
000080 6c dd 9a 3c 52 bd 4c 3d 03 ba c0 3c c1 ec 13 3c
       0.01890441 0.049985237 0.023526197 0.0090286145
000090 dd 4e 82 3c 27 92 a1 38 44 40 29 3c 9c af 7e 3c
       0.015906746 7.704301e-05 0.0103302635 0.015544798
0000a0 39 e0 57 3d 48 b0 68 3d 3d cc 5a 3d 64 ba 71 3d
       0.05270407 0.05680874 0.053417433 0.059015647
0000b0 fd c0 01 3b 0e f4 76 bc ef 1a 9b 3c ab c7 2a 3c
       0.0019798868 -0.015072836 0.018933741 0.010423581
0000c0 5a 6a ec 3b 59 a3 ed 3c df 86 8e bc da e2 99 3c
       0.0072148265 0.029008554 -0.017398296 0.018784929
0000d0 9d dd 0d bc 8a 58 8e bc 90 ab f0 bb 17 77 15 3b
       -0.008658794 -0.017376203 -0.0073446706 0.0022806579
0000e0 14 a5 4c 3a e6 84 1b 3c b0 c3 32 3d 7f 77 80 bc
       0.0007806581 0.009492135 0.043643653 -0.01568198
0000f0 09 9a 04 3d 63 55 f7 3a 45 a8 37 3d 32 15 dd 3c
       0.032373462 0.0018870052 0.04483821 0.026987646
000100 de 77 e5 3c a0 5a d9 3c c1 19 37 3d 92 ea 92 3d
       0.028011259 0.026532471 0.044702295 0.07173647
000110 d8 a8 24 3c 81 5d 0f 3d f7 8d f2 3b 8a e3 86 bc
       0.010050021 0.03500128 0.0074021774 -0.016465921
000120 bd 23 4b bc c1 40 62 bd 29 dc 64 bd da cd e5 bb
       -0.012398657 -0.055237535 -0.055874024 -0.007013065
000130 80 8d 23 bd a5 a3 73 bd 32 c6 17 bb aa cd ee bc
       -0.039929867 -0.059482235 -0.0023158905 -0.029150803
000140 ed f5 15 bc e2 3b 94 3c 76 2a f0 bc b6 38 6e bc
       -0.009152872 0.01809496 -0.029317122 -0.014539888
000150 aa ff 9d 3c 0b 1c 82 3c 88 6b a6 3a 0c 5d 74 3c
       0.01928695 0.015882513 0.0012696842 0.014914762
000160 05 1e 5f bb 48 43 5b 3d 03 85 a1 ba 4f 22 0d 3d
       -0.0034044993 0.05353096 -0.0012322966 0.034456547
000170 20 47 24 3d 0e de dc 3c 50 9e af 3c a1 f3 30 3c
       0.040106893 0.026961353 0.021437794 0.010800273
000180 8f ee 78 3d 55 21 7e 3d ea ff 1f 3d 12 21 76 bc
       0.060774382 0.062043507 0.039062418 -0.015022533
000190 52 b5 76 bd 86 ad 97 bd fc 89 3d bd 2f d0 ba bd
       -0.060231514 -0.07406144 -0.04627417 -0.09121739
0001a0 12 15 cc bd 7d a1 3e bd cd 8c ba bb 53 1f 04 3c
       -0.09964956 -0.046540726 -0.0056930543 0.008064109
0001b0 ef c2 ed bc 5f 9a 1a bb 9b 55 ac 3c a9 19 e5 3b
       -0.029023616 -0.0023590547 0.021036914 0.0069915843
0001c0 43 1f 8f 3b c5 9f 4c 3d 40 a9 eb 3c 7b 21 84 3b
       0.0043677404 0.049957056 0.028767228 0.0040323115
0001d0 12 8a 5a 3d 40 36 cb 3c 77 68 f8 ba 6d 55 e7 3c
       0.05335433 0.024806142 -0.0018952031 0.028238976
0001e0 73 78 bb 3c df 95 e8 3c b6 24 0c 3c 06 39 28 3d
       0.022884583 0.028391777 0.008553674 0.041070007
0001f0 ac fc 4d 3d 6b e6 36 3d 87 16 ab bb 99 2c b0 3b
       0.050289795 0.044653337 -0.0052211913 0.00537641
000200 c0 b4 df bc 7c 34 84 bd a3 f6 d9 bd 9f 8c f8 bd
       -0.027307868 -0.06455323 -0.10642745 -0.12136196
000210 0f f7 6a bd 96 64 36 bd b6 bf 23 bd f3 81 0f bd
       -0.05736452 -0.04452952 -0.03997775 -0.03503604
000220 e1 05 da bc 97 e5 2c bd 95 6b 06 3c 93 bf ac bc
       -0.026614131 -0.04221114 0.0082043605 -0.021087443
000230 b6 1b 30 3d cb e0 11 3c 2a a3 14 3d 78 6b 97 3c
       0.042995177 0.0089036925 0.036288418 0.018483862
000240 a7 68 10 3d 06 84 a1 3a 87 96 c7 3b 0a 2e dc 3c
       0.035256054 0.0012322671 0.0060909423 0.026877422
000250 41 26 ae 3b 58 f4 4c 3d 4e e2 8e 3c 49 c1 b4 3b
       0.005314619 0.05003771 0.017441895 0.0055162054
000260 7c b3 eb 3c 25 03 bd 3c bd ca b3 3c e0 b1 e9 3c
       0.028772108 0.023072788 0.02194726 0.0285272
000270 f4 0b 3a bd d6 ef a6 bd fd 0c ba bd 96 17 ac bd
       -0.045421556 -0.08151214 -0.090845086 -0.08402936
000280 c7 c6 b6 bd d0 d9 ec bd 23 60 cb bd 3c 29 b3 bd
       -0.089246325 -0.11564982 -0.09930446 -0.08748099
000290 3f 33 9c bc 4e f3 ef bc 3f 9e 9c 3c 55 07 8b bc
       -0.019067405 -0.029290821 0.019118426 -0.01697127
0002a0 c9 46 27 3d d8 9e 71 bc 8f 0a 15 3c 2e a9 21 3c
       0.04083899 -0.014747344 0.009096756 0.009866996
0002b0 c2 36 4a 3d 46 08 86 bc 34 10 ed 3b bb 4b 7f bc
       0.049368627 -0.016361367 0.0072345976 -0.01558202
0002c0 d7 43 f3 3c 16 9f 52 3b ce 03 a0 3a 78 d3 75 bb
       0.029695434 0.003213828 0.0012208165 -0.0037510078
0002d0 d4 fa 46 3d ea 0c 19 3d be a9 12 3c ce a8 12 bd
       0.048579052 0.03736583 0.0089516025 -0.035805516
0002e0 d5 f5 4e 3c bf bf 23 bd 3c 1e 40 bd d8 96 c2 bd
       0.012631853 -0.039977785 -0.046903834 -0.095014274
0002f0 b4 d5 fc bd c7 c7 12 be 76 98 ff bd 15 26 90 bd
       -0.12345448 -0.14334022 -0.124802515 -0.070385136
000300 4a dc 8c bd 7b 36 9a 3b ff bb 54 bc 94 4f ae bc
       -0.06877954 0.0047062016 -0.012984275 -0.02127818
000310 d8 2a a1 bc 64 aa 14 bc 73 96 eb bb d4 38 2d 3b
       -0.01967375 -0.009073827 -0.007189566 0.0026431577
000320 b1 e8 25 3d fb 97 04 3a fa 05 cb 3c aa d5 04 bd
       0.040505115 0.0005058047 0.024783123 -0.03243033
000330 22 42 13 bd 33 15 e1 3c bf 43 8b 3b c8 d3 5f 3c
       -0.03595174 0.027475929 0.0042500193 0.013661332
000340 4b 5f 9a 3c 6f df 3d 3d 93 23 8c bb 7c e5 0a 3d
       0.018844267 0.04635566 -0.0042767017 0.03391026
000350 23 ef 36 3c 37 f3 0e 3d 1d d8 90 3b 1f 32 e8 bd
       0.011165413 0.034899916 0.004420294 -0.11337685
000360 e8 1e 00 be 41 b4 f5 bd 09 c8 e0 bd 97 76 55 bd
       -0.1251179 -0.11997271 -0.10975654 -0.05211505
000370 07 e5 82 bd a0 6a 5d bd 8e 4c 4b 3c 19 1f 16 bb
       -0.0639134 -0.054056764 0.012408389 -0.002290672
000380 90 f8 01 3d 99 21 36 bc 1d 91 4d 3c a0 f1 32 bc
       0.03173119 -0.011116409 0.012546805 -0.010921866
000390 64 7f 00 3d 48 02 58 bc 4e a4 8c bc ad d3 cc bc
       0.03137149 -0.013184138 -0.01716819 -0.025003279
0003a0 f7 e3 9a bc ac bb 46 bd c0 28 4c bd 1c bb 36 bd
       -0.01890753 -0.04851882 -0.04984355 -0.044612035
0003b0 f0 2c e5 bc 7a fb 0c 3b 2a af 9c 3d 92 9c 15 3d
       -0.02797553 0.0021512196 0.076505974 0.03652627
0003c0 d3 4b 56 3d d3 85 1f 3d d9 27 72 bc c3 49 86 bd
       0.052318405 0.038945984 -0.014780008 -0.06557038
0003d0 33 e0 29 be 5c 84 2b be 9b c4 ff bd dc 05 b2 bd
       -0.16589431 -0.1674971 -0.124886714 -0.08692524
0003e0 de 7d 8d bd 97 39 73 bd 8c 83 0b bc b0 8b 9b bb
       -0.06908773 -0.059381094 -0.00851525 -0.0047468767
0003f0 71 d4 43 bc 35 3c 73 bb 31 49 0e bc f1 02 6a 3d
       -0.011952505 -0.0037114744 -0.008684442 0.05713171

b1 f4 [128]
000000 06 41 1e bd 67 3d 41 bc b7 08 06 3c 33 4c ac bc
       -0.03863623 -0.011794425 0.008180789 -0.021032428
000010 22 8d 02 bc ce d2 a6 3c 26 10 6b bc ee 1d f1 bc
       -0.007968219 0.020364191 -0.014347112 -0.029433217
000020 dc c7 16 3d f0 bb 9b 3c 70 e3 a6 bc 4a af 65 3b
       0.036811695 0.019010514 -0.020372123 0.0035047107
000030 d2 49 2f 3c c9 d7 50 bd 62 5e 19 bd cc 58 c0 bc
       0.0106987525 -0.05098704 -0.037443526 -0.023479842
000040 be 3b 0f bd bd d6 0f 3c 87 92 a8 bc 9a df 65 3b
       -0.034969084 0.008779225 -0.020577682 0.0035075904
000050 5e 43 8b bc f9 03 ce bc 9b 31 a2 3c a9 5c 3b bd
       -0.016999897 -0.025148379 0.019799044 -0.045742664
000060 22 b1 14 3d 94 da 7e bb c3 b8 e1 3b 81 95 e3 3a
       0.03630174 -0.0038887607 0.0068884804 0.0017363281
000070 56 6f 40 bc fa ab b7 3a f1 c4 86 bc 93 66 8b 3c
       -0.011745295 0.0014013045 -0.01645133 0.017016685
000080 f6 d4 18 3c a5 42 1b ba f1 c0 cd bc 5e 9f 7b bc
       0.009328118 -0.00059227116 -0.025116416 -0.01535782
000090 0b ce 24 3d dc 0e c7 3b 94 2c 16 bb d6 d9 30 bc
       0.04023556 0.0060747694 -0.0022914754 -0.010794124
0000a0 81 b8 07 3d 58 86 4a bc e9 5a ce bb 16 45 ea bc
       0.03313494 -0.012361132 -0.0062974584 -0.028597396
0000b0 17 8e 8f 3b 48 ea d6 3c 11 4b 1b 3c 04 7d e1 bc
       0.004380952 0.02623476 0.009478346 -0.027525432
0000c0 59 a5 aa 3a 3a d8 02 3d 81 ec f9 bc 7e 0c f7 bc
       0.0013019248 0.03194449 -0.030508282 -0.030157324
0000d0 df f1 32 3a b6 2f 4b bc f9 85 8f bc 5b 35 a9 bc
       0.0006826203 -0.012401512 -0.017519938 -0.020655325
0000e0 4c cc d5 3c 10 f0 97 3c c0 94 32 3c b3 d4 8a 3c
       0.026098393 0.018547088 0.010899723 0.016947126
0000f0 94 4e dc 3b b2 db 83 3c 5d 4c 93 3c 66 40 90 b9
       0.0067232344 0.01609597 0.017980749 -0.000275138
000100 89 7e c3 bc 30 f4 23 bd 23 e3 7e 3c ca 5f 12 ba
       -0.023864048 -0.040027797 0.015557083 -0.00055837317
000110 6f 53 c2 bc ba 49 12 3c 04 fa a5 3c 39 62 91 3c
       -0.023721425 0.008928711 0.020260818 0.017747032
000120 d2 05 a2 bc 13 e8 57 bc 04 78 07 bd 76 74 8c 3b
       -0.019778166 -0.013177889 -0.03307344 0.004286344
000130 b6 17 dc 3c 12 ef df bb 5e ae 82 3c 17 31 28 bd
       0.026866775 -0.0068339193 0.015952285 -0.04106244
000140 2c 77 ac bc ad e3 5a 3c 11 21 39 3c 6e ff 4d bc
       -0.02105292 0.013359946 0.011299388 -0.012573106
000150 81 54 02 3d d4 49 87 3c a6 09 96 bb db 73 00 3d
       0.03181887 0.016514696 -0.004578787 0.03136049
000160 76 bf 3d 3c 70 e4 0b bb e7 3a fd bb e9 51 11 ba
       0.011581292 -0.0021345876 -0.007727969 -0.00055435166
000170 ef 24 5c bc f7 30 8d 3b 61 63 05 3d af 68 a0 bc
       -0.01343654 0.0043088156 0.03256548 -0.019581167
000180 65 02 f3 3c 90 71 15 bd ec 38 59 3c 87 89 c8 bc
       0.029664228 -0.036485255 0.0132582 -0.02447964
000190 67 26 43 3d d6 fb 33 bc 15 c9 af 3a f6 b8 1f 3c
       0.047644045 -0.010985335 0.0013411368 0.009748688
0001a0 ec 43 0f bd 69 2a 43 bd db 4c c1 bc ec ed 11 3c
       -0.034976885 -0.047647867 -0.023596218 0.008906823
0001b0 bc 7d b5 3a 35 89 cd 3a 16 c3 43 3c 7f f3 17 bd
       0.0013846676 0.001568115 0.011948368 -0.03709745
0001c0 5e 08 e1 39 f4 aa 1b 3d 04 80 0e bc 6b d5 6b 3c
       0.00042921578 0.03800483 -0.0086975135 0.0143941445
0001d0 de 93 9f bc 5e 21 43 bd 95 cc c7 3b ac 46 58 3c
       -0.019479688 -0.047639243 0.006097386 0.013200443
0001e0 36 94 1d bd a7 30 6c bd 8c 9f c8 ba c7 3b bc 3c
       -0.038471423 -0.057663586 -0.0015306338 0.022977723
0001f0 7c 43 e7 3c b2 9a 1c 3c 09 f6 f8 3c 99 96 d9 bc
       0.028230421 0.009558367 0.030390756 -0.026561068

W2 f4 [10, 128]
000000 2b a8 7b 3c 1e 6d 01 3b 85 2a b5 bd 24 6f 8e bd
       0.015359919 0.0019748877 -0.088460006 -0.06954792
000010 f4 d4 26 be c6 0d 01 bf 81 90 9c 3e 73 28 42 3c
       -0.16292173 -0.5041164 0.30578998 0.011850464
000020 cd a1 13 bd 5d 7b aa 3c 3c 10 7a 3b 27 e6 d7 be
       -0.036042977 0.020810777 0.003815665 -0.4216778
000030 0a d2 b1 3d 07 d8 67 3d eb 05 d8 bd 35 f2 e1 3d
       0.0868264 0.056602504 -0.10548004 0.110325254
000040 c6 fd 82 3e d4 f3 6c 3e ce da b0 bd ab 73 16 3e
       0.2558424 0.23139888 -0.08635484 0.14692561
000050 bc fe 9c 3e d4 46 a5 3d f5 82 13 bd 5d 68 f0 bd
       0.30663097 0.0807015 -0.036013562 -0.11738656
000060 68 b7 2e 3e 87 59 f1 3d c1 f2 79 be c2 fb 23 bc
       0.17062151 0.11784654 -0.2440901 -0.010008754
000070 53 60 4a be 76 37 7c be 31 7a 48 be 00 a2 a2 bd
       -0.19763307 -0.24630532 -0.19577862 -0.07941055
000080 01 9a 9d 3d 0d 83 66 bd f9 1e ca 3e d9 fd 91 be
       0.076953895 -0.056277324 0.39476755 -0.28513983
000090 63 58 f3 3d ca 0e c8 bc 3c a6 ed bc 8f c7 62 3e
       0.11882093 -0.024421114 -0.02900993 0.22146438
0000a0 4d d0 20 3e 64 eb 52 3e 98 12 b0 3d 5a 70 55 bd
       0.1570446 0.20597607 0.085972965 -0.0521091
0000b0 24 7a 12 3d d2 97 b7 3e 5a 39 2f 3e b0 fa 8d 3e
       0.035761014 0.35858017 0.17111722 0.27730322
0000c0 f7 2f a4 bd 66 4a 0d be 3b b6 af bd 1d e3 4a 3e
       -0.08016961 -0.13797912 -0.085796796 0.198132
0000d0 61 97 4f be 9b 33 25 be 94 78 14 3c cd 33 b9 bc
       -0.2027259 -0.16132967 0.009061951 -0.022607708
0000e0 bf 00 61 be c9 84 cc bd 3e bf 25 be 25 ab 95 bd
       -0.21972941 -0.09986264 -0.16186234 -0.07308034
0000f0 79 21 8f be 41 2f 16 3e 02 da af 3d 4a 20 04 be
       -0.27955225 0.14666463 0.085865036 -0.12902942
000100 da aa 7c bd 0a 3d 79 3e 87 b6 e5 bd 77 0c 16 3d
       -0.061686374 0.24339691 -0.11216455 0.03663298
000110 3b 1c 01 3e 80 3e 47 be 20 8b 6f bd 70 dd cc bc
       0.12608425 -0.19457436 -0.05848229 -0.025007933
000120 47 8e 67 3e d0 9d 59 be 80 a5 09 3e 91 c7 8f 3e
       0.22612868 -0.21251607 0.1344204 0.28081945
000130 72 61 8a be 64 31 54 be d6 16 f8 3d f1 06 be 3d
       -0.2702747 -0.20721966 0.121137306 0.09278668
000140 c0 db 7d 3d db 81 8e 3d dc 89 df 3d 0e 53 06 3f
       0.061977148 0.06958362 0.109149665 0.5247048
000150 19 95 bd be 4c 24 bf be 6f 45 21 bd b3 64 95 3d
       -0.37027815 -0.3733238 -0.039372858 0.072945975
000160 a9 b0 33 3e b6 10 37 be 9c 7d 64 3e e9 80 c7 3d
       0.17547859 -0.17877468 0.22313541 0.097413845
000170 55 08 0c 3e 24 6a cd bd a3 bc e7 bd c8 e1 63 be
       0.13675053 -0.1003001 -0.113152765 -0.22254097
000180 63 ac c9 3d fe 20 87 bd 7a 81 69 3e 30 7c 38 bd
       0.09847333 -0.0659809 0.22803298 -0.04504031
000190 16 99 bb 3e 89 51 1a be c6 21 2d 3e 57 3f 33 be
       0.36640233 -0.15070166 0.16907415 -0.17504631
0001a0 ca ff ed bd c3 7b c9 be 81 51 4a 3e f9 4d 90 be
       -0.116210535 -0.39352235 0.19757654 -0.28184488
0001b0 d0 f7 03 bd 73 ac 81 be a1 0a a6 be ef 9c c0 bd
       -0.032218754 -0.2532688 -0.32429984 -0.09404933
0001c0 06 9d 0a bf c9 45 55 3e c1 03 1b 3d b7 a9 76 3e
       -0.5414585 0.20827402 0.037845377 0.24088179
0001d0 c4 77 80 bc 87 84 b4 bc 2b d7 09 bc a3 df 90 3e
       -0.015682109 -0.02203585 -0.008413116 0.2829562
0001e0 41 ba d8 be a0 df d3 3e 7d 44 3a 3e a2 17 67 3d
       -0.423296 0.4138155 0.18190189 0.056419022
0001f0 09 ba 2e 3e 07 c8 c9 be 6e 28 ac 3d 1a 60 7b be
       0.17063154 -0.3941042 0.08406149 -0.24548379
000200 69 6b 15 3e 28 55 a5 3c e9 74 a9 bd 8e b7 8c 3d
       0.14591755 0.020182207 -0.08274252 0.06870948
000210 7c dc 7e 3e 35 64 61 3e f3 bd 17 be ee a2 6d 3d
       0.24888796 0.22010882 -0.14818554 0.05801671
000220 5e e1 99 3d 89 e1 47 be 0c 59 d2 3e 3b cc 07 3e
       0.075136885 -0.19519629 0.41083562 0.13261501
000230 47 a2 ae be 6c b2 cc be b9 06 1a 3e 65 63 9b bd
       -0.34108183 -0.39979875 0.15041627 -0.075873174
000240 f6 8b 39 3e 7a 89 19 3e f9 0a 1c be d0 16 d3 bd
       0.18119797 0.1499385 -0.1523856 -0.103070855
000250 b6 14 92 bc 38 c7 56 3e be f5 7c 3e 58 f6 25 be
       -0.017832141 0.20974433 0.24703118 -0.16207254
000260 50 9e 8f be a2 73 85 be 6e ff 3f bd 03 36 5e 3e
       -0.2805047 -0.26064783 -0.046874456 0.21700291
000270 1c ec 2a 3e 68 a6 ab bd c3 f4 81 be 69 58 82 bd
       0.16691631 -0.08381349 -0.2538205 -0.06364519
000280 f5 fd 99 3d ee b9 64 3e f5 03 34 be dd 26 91 3e
       0.075191416 0.22336552 -0.17579634 0.28349963
000290 2e 9e 4a be 27 c7 08 3e ab 2b e3 bc 15 16 63 3e
       -0.19786903 0.1335722 -0.027730783 0.22176392
0002a0 6c c9 72 3d 54 cf b1 bd e8 aa 05 3d 68 3a 4b 3d
       0.059274122 -0.08682123 0.032633692 0.049616247
0002b0 da 3c 1b be 2c d5 d7 bb a2 a5 4b be ae a9 14 be
       -0.15159932 -0.0065866914 -0.19887403 -0.14517853
0002c0 ea ca 23 3d 54 9c 7c be 19 f5 a7 3d 20 34 36 3e
       0.039988436 -0.2466901 0.082010455 0.17793322
0002d0 8d ca a2 3e f1 6e c7 bc a1 2c a8 3d e7 e0 20 3e
       0.3179516 -0.024344893 0.08211637 0.15710793
0002e0 92 8d b1 3e ca 0b 87 bd ce 69 e7 be c6 32 fc 3e
       0.34678322 -0.065940455 -0.4519791 0.49257487
0002f0 3c ab b6 bd 0e 26 0e 3e 67 d6 54 be 96 9b c8 3e
       -0.08919379 0.13881704 -0.20784913 0.39181203
000300 6c 3c 7c bd 09 e4 ad 3e df 6c cf 3d 96 57 2f 3e
       -0.06158106 0.3396304 0.101281874 0.17123255
000310 4b 80 ab bc 82 2f 4c be 90 9d 31 3d db fa 37 3b
       -0.020935198 -0.19939998 0.043363154 0.0028073105
000320 ba 1b 8e bd 5c 56 27 3e 43 3f a3 3e 58 46 60 3e
       -0.06938882 0.16341537 0.31884202 0.21901834
000330 2e 9e 93 be 7e 9b c4 3d e0 85 8d 3e 1f 1e bd bb
       -0.2883162 0.0959997 0.276412 -0.005771413
000340 c1 cf 31 3d 68 ef a0 3d 14 45 ec 3d a8 af 40 be
       0.04341102 0.07858163 0.11536613 -0.18817008
000350 ad f0 1d be a7 1a 5f 3e 0c e4 a2 3d d8 55 1a be
       -0.15423842 0.21787511 0.07953653 -0.1507181
000360 50 95 73 be e2 16 27 3e fc 31 49 be 62 b9 c4 bd
       -0.23787427 0.16317323 -0.19647974 -0.096056715
000370 ac 4b 71 3e c2 b7 dd 3d 20 63 91 3d ea 42 a9 3c
       0.23564023 0.10826065 0.07098985 0.02066179
000380 c0 c6 ef bb c7 c5 2c 3f 62 ba 95 be e0 57 e7 3e
       -0.007317394 0.67489284 -0.2924376 0.4518423
000390 cb 16 4c bd 60 96 f5 3e 0e 96 29 be 76 f7 3b 3d
       -0.049826425 0.4796629 -0.16561148 0.045890294
0003a0 24 c9 9e 3e f2 ad 03 3d 62 fb 1d 3d 45 6c c2 be
       0.31012833 0.03214831 0.038569815 -0.37973228
0003b0 4c d9 2a be ed b0 bf 3d ef 45 e8 3e 3e 95 c2 3c
       -0.16684455 0.09359918 0.45365855 0.023752805
0003c0 2b 06 a5 be 70 b0 b5 3d 8b 59 1e be 3c bb 50 3e
       -0.32231268 0.088715434 -0.15463845 0.20383924
0003d0 28 85 ba 3d d6 32 d7 3e 48 14 8b 3c 01 39 e2 bc
       0.09107429 0.42030972 0.016977444 -0.027615072
0003e0 88 73 e5 3d 75 e9 07 be c9 65 75 be ac c6 ac ba
       0.112036765 -0.1327265 -0.23964609 -0.0013181767
0003f0 d4 ea f2 3c 54 2e e9 bd ed 37 51 3e 4c 23 37 3d
       0.02965299 -0.113857895 0.2043149 0.044711396

b2 f4 [10]
000000 ad e2 a8 bc de c4 4d be fc 59 d3 bd 29 06 94 3d
       -0.0206159 -0.2009463 -0.103198975 0.072277375
000010 fa aa 9f bb fe 32 18 3d cb e1 1a 3d 69 e8 03 be
       -0.004872677 0.037158005 0.03781299 -0.12881626
000020 aa 40 d0 3e 14 20 5d 3e
       0.40674335 0.21594268
